outputs/models/best_sequence_checkpoint.pth (torch, 49772 bytes, 13 tensors)

lstm.weight_ih_l0 f4 [128, 8]
000000 68 ef 2e 3b 41 93 40 3e 1d 21 32 3e 47 4b b7 3d
       0.002669299 0.18806173 0.17395444 0.08949905
000010 99 08 20 3d 47 f8 2e bd 3c 09 1a bd 8a ad 8f be
       0.0390707 -0.042717244 -0.037606463 -0.28062087
000020 89 bc e4 3c 50 8c 28 be 7f c9 d3 3d 7f 90 24 3d
       0.027921932 -0.16459775 0.10341167 0.040176865
000030 8f b1 3b bd 5c e7 3e 3c 4a 74 c4 3d 5b 75 e3 3d
       -0.04582363 0.01165184 0.09592493 0.11106368
000040 5a 49 32 be 10 73 67 bc b9 fe 24 3e e1 32 a5 bb
       -0.17410794 -0.014126554 0.16112794 -0.0050414656
000050 d6 26 ba bc 63 d0 93 be 45 f1 c8 bd ff c5 5c be
       -0.022723597 -0.28869924 -0.098116435 -0.21559905
000060 d1 73 14 bd 56 37 b8 3c bd a3 34 be 24 65 98 bd
       -0.036243264 0.022487324 -0.17640586 -0.07441166
000070 55 c8 ca bd 39 c8 ee 3d 7e 0b 12 bd 23 e5 59 3d
       -0.099014916 0.11659283 -0.03565549 0.053197037
000080 d3 4f 86 bd bf 52 35 bd 07 b7 00 3d 1f 15 1a 3e
       -0.06558194 -0.044268366 0.03142455 0.1504712
000090 59 00 06 bd 12 7d 80 be 1d 1b 8e bc 1f bc 21 be
       -0.032715175 -0.2509542 -0.017346913 -0.15794419
0000a0 33 bd e9 bd c2 dc 43 bd be 96 5a 3e ea 30 ae 3d
       -0.1141304 -0.047817953 0.21346566 0.08505423
0000b0 0f f3 8c bd c3 52 8a be 93 c2 49 3b 5d 6b 2e bd
       -0.06882297 -0.27016267 0.0030786141 -0.04258286
0000c0 49 04 52 3c 05 40 9b be d2 7b fe bc 91 e4 15 be
       0.0128184045 -0.3032228 -0.031064902 -0.14637972
0000d0 9f 16 2f 3e cd b4 4e 3e 94 1c c3 bc e6 b2 77 bc
       0.17098473 0.20186158 -0.023817338 -0.015118336
0000e0 98 c6 41 be 80 db 59 3c c4 eb 9e 3e 7f e6 2e 3e
       -0.18923414 0.013296962 0.3103925 0.17080115
0000f0 64 f5 11 bc 99 17 59 be 06 1d 18 bd 62 85 85 be
       -0.008908603 -0.21200408 -0.037137054 -0.26078326
000100 ac ee a8 3c a7 b3 93 bd 26 a9 90 be 96 1b ea bd
       0.02062162 -0.07212 -0.2825405 -0.11431043
000110 e3 99 14 be a6 6d 15 3d b8 96 7b bd d5 be 17 3e
       -0.14511828 0.036481522 -0.061423033 0.1481889
000120 e6 aa 44 3e f1 09 7d bd cf 39 92 be b3 36 55 be
       0.19205818 -0.06177706 -0.2855973 -0.20821647
000130 ae b6 70 bd aa bc 11 3d ad 09 a1 3d 26 5f 09 3e
       -0.058767967 0.035580315 0.07863174 0.13415202
000140 15 72 c8 3d ec eb 6a 3c 5f 61 95 be eb 6d 49 be
       0.097873844 0.014338475 -0.2917585 -0.19670837
000150 fd f9 ce 3d fc d2 6d 3e 2e 79 6f 3e 2c 18 9d 3e
       0.10106275 0.23225015 0.2338607 0.30682504
000160 c7 ea d3 3d b5 ed 56 3c 71 27 82 3e e7 de 51 3d
       0.103475146 0.013118197 0.25420716 0.051237967
000170 c7 73 80 bc 13 82 2f be 87 16 54 bd 11 c2 56 be
       -0.015680207 -0.17139463 -0.051779296 -0.20972468
000180 36 2e f0 3d 37 92 0f bd 6d e3 0e 3e d9 5c a1 bd
       0.11727564 -0.03505155 0.13953944 -0.078790374
000190 b9 be 86 bd 63 f2 41 bd 46 98 78 3e 61 96 a3 bd
       -0.06579346 -0.0473503 0.24276838 -0.07987667
0001a0 6d 79 11 be fe 66 3e 3e 1f 05 c9 3e 1b 53 75 3e
       -0.14206477 0.18593976 0.3926172 0.23957483
0001b0 92 d1 9a 3d 0d ce 25 be 80 c0 a3 bd 0e d8 97 be
       0.075595036 -0.16191883 -0.07995701 -0.29657024
0001c0 1a 29 92 bd 17 d0 2e be 1a cc 4b be a6 49 4e be
       -0.07136746 -0.17071567 -0.19902077 -0.20145282
0001d0 99 ff 1b 3e d8 87 ba bd da 3e b7 3d 32 35 04 be
       0.15234222 -0.091079414 0.08947535 -0.12910917
0001e0 d7 a9 f2 bc fb ce 2f 3d 60 55 c7 bd 65 85 cf bc
       -0.029622002 0.042922 -0.09733081 -0.025332162
0001f0 16 83 b5 3c 12 7c a1 bd ed 44 e5 bc 72 78 a3 bd
       0.022157233 -0.07884993 -0.027986968 -0.079819575
000200 fe 97 ea bc fc 93 3a bd 47 c0 69 3e 62 77 88 bb
       -0.028636929 -0.045551285 0.22827254 -0.004164622
000210 9b 69 90 bd a8 f5 33 3d d0 13 86 bd 2c ef 8b bc
       -0.07051393 0.043935448 -0.06546748 -0.01708182
000220 cd b4 aa bd 4f b8 d4 3d d7 30 74 3d b4 a8 17 be
       -0.08335266 0.103867166 0.05961689 -0.14810449
000230 09 ce a0 3c 76 3e 8e 3d f3 e4 d2 3d dd b9 56 be
       0.019629495 0.06945507 0.10297575 -0.20969339
000240 87 f5 b5 3d d2 62 b7 bb 9d 7a 95 3e 2d dc e0 3d
       0.08884721 -0.005596497 0.2919511 0.10979495
000250 f2 e4 2f bd 7b ba 01 be 1e 67 a9 3d 09 1f 8f be
       -0.04294295 -0.12668793 0.08271621 -0.27953365
000260 9b 89 4c bd 85 36 d7 3d e7 3d f1 3c 9a d5 e7 bd
       -0.04993592 0.10508446 0.029448463 -0.11320038
000270 9e 38 07 3e ed 35 78 bd 6a e0 57 bd 62 13 1c be
       0.13205191 -0.060598303 -0.052704252 -0.15241769
000280 a0 15 34 3e 21 ee c7 3d 1f 93 f8 3d 04 67 03 be
       0.17586374 0.09762216 0.12137436 -0.12832266
000290 7d 19 1f bd 61 56 b2 bd e2 6a 95 3d e9 f1 e6 bd
       -0.038842667 -0.08707882 0.07295777 -0.112766095
0002a0 26 f0 c4 bc 25 dd fb bd 9e 29 20 3e 86 20 9c 3c
       -0.024040293 -0.12298039 0.15640876 0.019058477
0002b0 65 26 00 be 72 c8 aa bb 3c a0 94 3c 27 9a 36 3c
       -0.12514646 -0.005211883 0.018142812 0.011145151
0002c0 ba c6 0e 3d 32 ad 37 3e 05 32 53 3e 03 86 9c 3e
       0.03485749 0.17937163 0.2062455 0.30570993
0002d0 e4 94 63 3c f9 cb 33 bc 10 c5 97 3e 56 0d 07 3e
       0.013890479 -0.010973924 0.29642534 0.13188681
0002e0 26 6e 7f 3d 72 d1 47 3d d2 bd 02 3e dd 0a 35 bd
       0.062360905 0.048783727 0.12767723 -0.044199813
0002f0 92 44 b4 3d 8d a5 b4 bc ed d5 84 3c 64 44 cb bd
       0.08802141 -0.022051597 0.016215289 -0.09925154
000300 4c b3 20 3e 91 25 7f bb ac 58 32 be fa 01 97 be
       0.15693396 -0.0038932303 -0.17416638 -0.29493695
000310 f5 7c b7 bc 75 bb 0c 3e 25 70 e2 3d 29 6a 49 3e
       -0.022398451 0.13743384 0.11056546 0.19669403
000320 fb 25 a4 3d cb d4 96 bb b6 9a 0e 3e c8 b9 03 3e
       0.08015057 -0.0046030036 0.13926205 0.12863839
000330 b5 ff 28 3d 04 53 26 bd 89 da 30 be 1c c4 7a be
       0.041259486 -0.040606514 -0.17270865 -0.24488872
000340 e3 d0 e4 3d 54 62 08 3d 93 36 56 bd e9 53 45 bd
       0.111726545 0.033296898 -0.05229814 -0.048175726
000350 15 93 2b 3d 44 b0 82 bd 6d 33 19 3b 99 7d 28 be
       0.041888315 -0.06381276 0.00233766 -0.16454162
000360 4f 2c 5a bd 64 6a 58 bd 0e 83 2e be f2 1d 5e be
       -0.053264912 -0.052835837 -0.17042181 -0.2169111
000370 c6 81 53 3d b4 a4 05 bd 21 8c 6d be ec 20 48 3e
       0.051637433 -0.032627776 -0.23197986 0.19543809
000380 04 bb 55 bc fe 47 ab 3d 06 ad 1b be 92 25 0c be
       -0.013045076 0.08363341 -0.15202722 -0.13686207
000390 e4 8c 34 be e6 29 25 3a e3 a1 61 3e 49 36 f1 bc
       -0.1763187 0.0006300494 0.22034411 -0.02944483
0003a0 03 00 b4 ba 71 7a 99 bd de 97 b2 bd e9 a4 43 be
       -0.0013732914 -0.07494057 -0.087203726 -0.19105877
0003b0 a9 23 79 3d 8e 81 f3 3c 26 67 0a be 80 22 6b bd
       0.060825024 0.029724862 -0.1351591 -0.05740595
0003c0 6c b4 32 bd 7b ca f1 bc f0 73 87 bd d5 96 85 3d
       -0.043629095 -0.029515496 -0.0661391 0.065229096
0003d0 ac 2b 2f bc d1 44 ae bd 82 95 6e 3d a2 d3 12 be
       -0.0106915645 -0.085092194 0.05824805 -0.14338544
0003e0 ec a2 50 bc c4 ef 58 3e 74 cf b5 3d bc 81 51 3d
       -0.012734156 0.21185213 0.08877459 0.051149115
0003f0 6a 5e 47 bd ed be 56 be 0d d6 b3 bd 48 bb 06 bd
       -0.048674025 -0.2097127 -0.08781061 -0.03289345

lstm.weight_hh_l0 f4 [128, 32]
000000 02 3a ce 3d 6a ae 80 bc a3 ce 83 3d 5b 83 62 be
       0.10069658 -0.015708167 0.06435897 -0.2212042
000010 89 59 6a 3d 1a cd 15 bd a8 b1 62 bd 2c 35 59 bb
       0.057214294 -0.036572553 -0.055345207 -0.0033143265
000020 25 b0 fd bc 31 fd 13 bd 97 6a f9 bd d9 2e aa bc
       -0.030967781 -0.036130134 -0.121785335 -0.020774292
000030 e3 f9 d4 3c 7b 41 1a 3c 8e 72 4b be df 18 52 3c
       0.025998062 0.009415026 -0.19867918 0.012823313
000040 10 7b 57 3c 25 ab 1e 3e c8 7f 27 be 91 8d 1d be
       0.013151899 0.15494974 -0.16357338 -0.15386035
000050 2b 5d 57 be 6a 2c c3 3d d6 74 31 be 57 85 ae bd
       -0.21031635 0.09529956 -0.17329726 -0.08521526
000060 d8 59 b9 bd 26 48 42 bd ec be 08 3d 95 10 63 bc
       -0.090503395 -0.047432087 0.033385202 -0.013858934
000070 01 b0 b2 3d bd 80 e6 3b ed 67 11 be 60 a0 5b be
       0.08724976 0.00703439 -0.14199801 -0.21447897
000080 e2 90 47 bd 7a 4b d4 3e d7 6e eb 3d 41 2e 05 be
       -0.048722155 0.41463834 0.114957504 -0.13005926
000090 fc 25 80 bd 1c 5c ae 3c 15 db b6 bd bf d4 1e be
       -0.06257245 0.021284156 -0.08928505 -0.15510844
0000a0 73 be f5 bc ba 20 e8 3d 2a 06 25 be 71 0c 82 bd
       -0.02999804 0.11334367 -0.16115633 -0.06350029
0000b0 02 ac 90 bd 2d a1 fd b9 bc a9 21 be 98 b1 20 bd
       -0.07064058 -0.00048376006 -0.15787405 -0.039231867
0000c0 bd 0e 94 be 20 93 87 3e 11 a1 2f bc fc 95 88 bd
       -0.28917494 0.26479435 -0.010719554 -0.06669232
0000d0 08 ae 90 bb 00 45 7d 3d 85 39 5f be 28 73 ba bb
       -0.0044152774 0.06183338 -0.21799286 -0.005689997
0000e0 8b ec 6c be 92 6d 03 3e 7a c5 26 be d7 73 94 be
       -0.23137109 0.12834767 -0.16286269 -0.2899463
0000f0 7c 46 59 3d a9 c0 e1 3c d8 ff 8d be f1 cf 7b bd
       0.053045735 0.027557688 -0.27734256 -0.061477605
000100 81 96 b1 3d 0a e9 aa 3b b6 22 7e 3d 14 d1 48 be
       0.086712845 0.0052157687 0.06204482 -0.19611007
000110 28 49 da bb e3 e5 89 3d d1 cb 91 bd 66 59 c5 bb
       -0.006661553 0.067333005 -0.07118953 -0.00602262
000120 c9 26 9e 3d a8 d9 23 3e b4 e1 aa 3d 05 3a 49 bd
       0.077222414 0.16000998 0.08343831 -0.049127597
000130 cf 2b 86 3d f0 f4 63 3c 3f 5d ec bd 49 14 ce 3c
       0.065513246 0.013913378 -0.11541223 0.025156157
000140 62 41 43 3c 10 1f cc 3c b4 3b a4 3d b6 1f 41 bd
       0.011917444 0.024917156 0.080192 -0.047149383
000150 cb d5 0e be 5b 42 40 3d 47 9c a5 bb 71 31 1d be
       -0.13948743 0.04693828 -0.00505403 -0.15350892
000160 81 75 04 3d fc 82 8d 3e 6a bf bb 3d aa 26 1f bd
       0.032338623 0.27638996 0.09167369 -0.038855232
000170 ca 72 5e 3d 7c 99 29 3e c7 bb 13 bd 8c f7 83 bd
       0.05430869 0.16562456 -0.03606775 -0.064437
000180 32 a4 53 bc 03 c0 15 be 0c 10 95 3c 5e 99 ae 3d
       -0.012917565 -0.14624028 0.018196128 0.08525346
000190 8a 3e 0e be 83 96 6f 3d d1 54 97 bc 20 88 50 3e
       -0.13891044 0.05849315 -0.01847306 0.20364428
0001a0 81 fd 48 3d b4 8b d9 3d 8a 5f 11 be 37 75 49 3d
       0.049069885 0.106223494 -0.14196602 0.04918405
0001b0 10 7f 9f bc 89 f7 31 be 5d b5 b9 3d 07 be 0a be
       -0.019469768 -0.17379583 0.090677954 -0.13549052
0001c0 13 a9 75 be 93 ad 63 bd 97 b6 d7 bd 50 bb d5 3d
       -0.23990278 -0.055585455 -0.10532873 0.10436118
0001d0 d8 f6 b2 bd 2a e7 1d bd 2d 79 10 be b3 40 37 be
       -0.08738488 -0.038550533 -0.14108725 -0.17895775
0001e0 19 cb 2a be 97 32 72 bd aa 0b a9 bd 72 5d fc bc
       -0.16679038 -0.059130277 -0.08254178 -0.030806277
0001f0 dc 0a 6f 3d 2b 39 40 3d 21 d8 0f be 0e 07 93 3c
       0.058359966 0.04692952 -0.1404729 0.0179477
000200 e0 2a 11 3d 4b ec ae 3d 4d 40 36 bd 64 9f c1 3d
       0.03544128 0.08541163 -0.044494916 0.094542295
000210 ec 61 d5 bd 69 53 16 be 0f db 07 3e 94 c4 f2 3d
       -0.10419068 -0.14680256 0.13267158 0.118539006
000220 9a 6a 4b 3c be 66 34 3e 81 5b 27 3e fa 36 93 bd
       0.0124155525 0.17617318 0.163435 -0.0718822
000230 7b da b7 3c c6 b2 1a 3e e6 2f 22 3d 2d 78 22 be
       0.022443047 0.15107259 0.03959646 -0.15866156
000240 18 aa af bc 3b 5c 16 3d d3 13 83 3c c2 81 24 be
       -0.021443412 0.03670905 0.016000664 -0.16065124
000250 34 ea e7 bb 90 4a 81 bd a5 8c d3 3d 06 7f 0d 3e
       -0.0070774797 -0.0631305 0.1032956 0.13817987
000260 17 47 f4 bc 3e 2c d9 3d f2 f2 ba 3d 41 72 14 3e
       -0.029819055 0.10604142 0.091283694 0.1449671
000270 61 8c b7 bb e2 e9 64 bc 0b 82 31 be 9b 8e 04 3e
       -0.0056014513 -0.013971778 -0.17334764 0.12945025
000280 7f 60 2f 3e 7e 3c 93 3b b9 ad 13 3e bc 9b 68 bc
       0.17126654 0.004493295 0.14421739 -0.014197286
000290 e8 06 38 be 58 a1 10 be ab e9 d8 3c d3 39 8c 3d
       -0.17971385 -0.14124048 0.02647861 0.068469666
0002a0 ba 85 de 3c ee 52 34 bc 31 5b f5 3c 69 d4 ea bd
       0.027163375 -0.0110061 0.02995071 -0.11466295
0002b0 4f eb c2 3c db ac 65 3d d6 8b ea bd 0d 67 e2 bc
       0.023793845 0.05607305 -0.11452453 -0.027637029
0002c0 92 a6 0f bd 10 24 db 3b 38 2b f6 3d d7 49 50 be
       -0.035070963 0.0066876486 0.12019962 -0.20340668
0002d0 0f f8 1f 3c c0 aa 94 be 7d f6 8b 3d 6c 44 f3 bd
       0.009763732 -0.29036522 0.06834123 -0.11878285
0002e0 42 65 e0 bd ad d8 8b 3d 37 60 4d 3d fe e5 66 bd
       -0.109568134 0.06828437 0.050140586 -0.05637168
0002f0 0b 1a 6c 3c 1b e9 2a be f7 4e 90 bd 09 ac 80 be
       0.014410506 -0.16690485 -0.07046311 -0.25131252
000300 6f 70 26 3c 6c 0d 58 3d 89 e2 be 3c a5 77 74 3c
       0.010158642 0.052747175 0.02330138 0.014921104
000310 ab 8a 91 bb f1 3f 48 bc de ce dd bd d7 2e e3 bd
       -0.0044415793 -0.012222276 -0.108304724 -0.11092918
000320 2f 39 97 3e 7c 86 20 3d 73 7e fb 3d 05 84 f3 bd
       0.29535815 0.039190754 0.12279978 -0.11890415
000330 d7 db 11 bd ac 18 13 3e 5c 92 63 3d e2 fc cd bc
       -0.035610046 0.1436488 0.0555595 -0.025144998
000340 3c f6 7a 3d eb 96 c0 3c 9b b0 4f be bb 32 9d 3d
       0.061269984 0.023509463 -0.20282213 0.07675692
000350 d3 f3 1d 3e 08 3f af 3d 1e 0a b1 3d a1 68 e1 3d
       0.15425043 0.08556944 0.08644508 0.110062845
000360 6f 9a 6e bd 04 01 ac bd 46 21 1f be 0a 8e f8 bc
       -0.058252748 -0.08398631 -0.15540037 -0.030341167
000370 7c b3 c1 3d 92 03 36 bc 79 f6 8e bd 15 ac 44 bc
       0.09458062 -0.01110925 -0.06980605 -0.012003918
000380 97 78 b0 3e ce ae 08 be 91 1a 26 3d d4 bc 00 bb
       0.34467003 -0.13347933 0.04055268 -0.00196438
000390 72 aa 2d 3e 94 8e 81 bd 8a b0 28 be 01 df b0 3d
       0.16959551 -0.06326023 -0.16473594 0.086362846
0003a0 bf 03 12 3c 09 43 e7 bd 03 0e 0c bd aa 24 29 be
       0.008912026 -0.11292083 -0.03419305 -0.16517892
0003b0 d5 08 df 3d c9 60 2d 3e c5 12 74 bd 41 44 aa be
       0.108903565 0.16931452 -0.059588213 -0.332552
0003c0 cd e8 c9 bc 79 65 87 bc c6 3f 5d 3e 95 11 73 3d
       -0.02464714 -0.016527878 0.21606359 0.05934294
0003d0 ea 15 75 be 2b 48 56 3c 53 fc 4f 3e 7e b9 28 be
       -0.23934141 0.01307873 0.20311098 -0.1647701
0003e0 4a e1 66 be 85 c6 13 bd 99 43 11 3e e4 f6 81 3d
       -0.22546878 -0.036077995 0.14185943 0.06345919
0003f0 f4 a0 ca bd 4f ea 41 be 1f d9 ba bd 56 bf 8e be
       -0.098939806 -0.18937038 -0.09123444 -0.27880353

lstm.bias_ih_l0 f4 [128]
000000 b5 8a b2 bd d7 5c 99 bc e3 c3 3b bb d7 4f 11 be
       -0.087178625 -0.018721027 -0.0028650693 -0.14190613
000010 4c b0 5c 3d f3 4f 1c bd db 29 0b be 7c 34 08 be
       0.053879067 -0.038162183 -0.13590185 -0.13301271
000020 0b 60 c5 bd cd be 7a 3c 9d 42 4f bd 6c 94 18 bd
       -0.09637459 0.0153042795 -0.050600637 -0.03725092
000030 82 fd d8 3b ec b2 53 bd 84 79 f8 3c b1 e7 09 be
       0.0066220174 -0.051684305 0.03033138 -0.1346729
000040 77 8f ca 3b 45 e3 06 bd c6 33 f2 3c 49 58 6b bd
       0.006181653 -0.032931585 0.029565703 -0.057457242
000050 cd 6c 3b 3c 33 f4 4c bd 06 b7 96 3c a3 ec ca bd
       0.011439514 -0.050037574 0.01839782 -0.09908416
000060 ff 56 72 bd d4 ee 75 3d 9e 8b 27 bd 70 ba ad bd
       -0.059164997 0.060042217 -0.040904634 -0.08482826
000070 22 98 81 3d 7d 3a 33 be 0b 98 a9 3a 2e f2 9f bd
       0.06327845 -0.1750278 0.0012938989 -0.07809864
000080 f8 fa 2f 3d 5b 2d 73 bc 33 0c cc 3d a2 04 44 ba
       0.04296395 -0.014842357 0.09963264 -0.0007477497
000090 e8 37 41 3e 6c 8f dd 3c 56 f3 81 bd 4e 42 44 3c
       0.18868983 0.027045928 -0.06345241 0.011978699
0000a0 01 8a 31 3d 5b 8d 05 3e 93 85 5b 3d 50 87 fd bc
       0.0433445 0.13042204 0.053594183 -0.030948311
0000b0 64 d5 01 3e 5d c1 8e 3c a9 ab 2f 3e e8 ab 78 bd
       0.12679058 0.017426187 0.17155327 -0.060710818
0000c0 b8 b0 18 3e d7 08 cc bd b7 b9 8a 3c 6d b9 30 3e
       0.14911163 -0.099626236 0.016934259 0.17258234
0000d0 c6 ce 87 3d f8 ae 88 bd f5 eb 09 3e 74 ab 59 3d
       0.06631236 -0.06673998 0.13468917 0.053142026
0000e0 df 49 8e 3d dd b2 0c 3e 69 02 11 3e 51 27 03 3d
       0.069476835 0.13740106 0.14161076 0.032019917
0000f0 95 14 23 3e ae e3 a1 bc 9f 24 8e 3d 05 3e 36 3b
       0.1592582 -0.019761886 0.06940579 0.0027807963
000100 c8 74 b8 3c 9b 60 d2 ba aa b0 7e 3b 30 c3 8b bb
       0.022516623 -0.0016050519 0.0038862624 -0.0042652115
000110 3c bc 1e 3c 6d 25 42 3c 0d 26 92 3c d8 02 2b bc
       0.009688433 0.011849743 0.01784041 -0.01043769
000120 8b 04 c1 bc d1 e6 9c bc 4a ee 26 3b 18 25 2c bc
       -0.023561737 -0.01915303 0.0025471621 -0.010506891
000130 14 7e 7f bb d8 b6 36 3b be 94 ba bb 07 f3 71 bb
       -0.003898506 0.002787998 -0.005694001 -0.0036918537
000140 66 48 90 3a de a4 d4 bc a1 a1 90 bb 75 ee 70 3a
       0.0011007905 -0.025957521 -0.004413799 0.00091908063
000150 5a 37 aa bb d0 0c db bb 9a 0e 9b bb 24 4b 88 bc
       -0.0051945867 -0.006684877 -0.0047319653 -0.016637392
000160 16 1d ae bc e5 90 84 3c 59 19 bd bb 68 31 13 3c
       -0.021254104 0.016182372 -0.005770844 0.008983947
000170 5f 10 11 bd a5 81 18 bb 7a 6c 23 3c 90 b0 66 ba
       -0.035416003 -0.0023270634 0.009974593 -0.00088001136
000180 7c 43 2f 3d 72 12 d1 bd 2e 60 23 3d 79 c5 4d bd
       0.042788967 -0.10208596 0.039886646 -0.050237153
000190 1d 86 41 3d 60 d3 30 bc 9f 03 18 be b1 eb 35 bd
       0.04724704 -0.010792583 -0.14845131 -0.044414226
0001a0 ca 08 b7 bb b1 5b f5 3c 0c 14 8c 3b 4d ce f7 bc
       -0.0055857645 0.029950948 0.0042748507 -0.030249739
0001b0 b0 60 d0 3c 6d 4e 26 bd f0 dc 66 3d ec 41 1a be
       0.02543673 -0.040602136 0.056363046 -0.1506421
0001c0 45 d3 c2 3c 46 8a 5a bd 0b 02 3a 3b 00 1f c1 3c
       0.023782382 -0.053354524 0.0028382565 0.023574352
0001d0 56 e2 fa bb 08 5c 6e bd 0e 60 e8 3d 83 40 7c bc
       -0.007656376 -0.058193237 0.11346446 -0.01539624
0001e0 af c3 18 3d ba 98 80 3d 55 0e 11 bd 79 bc 95 bb
       0.037295993 0.0627913 -0.03541406 -0.004569587
0001f0 a2 92 e6 3c 91 f8 09 be d0 60 13 bc 84 55 ec bc
       0.028146092 -0.13473727 -0.00899525 -0.02884937

lstm.bias_hh_l0 f4 [128]
000000 b5 8a b2 bd d7 5c 99 bc e3 c3 3b bb d7 4f 11 be
       -0.087178625 -0.018721027 -0.0028650693 -0.14190613
000010 4c b0 5c 3d f3 4f 1c bd db 29 0b be 7c 34 08 be
       0.053879067 -0.038162183 -0.13590185 -0.13301271
000020 0b 60 c5 bd cd be 7a 3c 9d 42 4f bd 6c 94 18 bd
       -0.09637459 0.0153042795 -0.050600637 -0.03725092
000030 82 fd d8 3b ec b2 53 bd 84 79 f8 3c b1 e7 09 be
       0.0066220174 -0.051684305 0.03033138 -0.1346729
000040 77 8f ca 3b 45 e3 06 bd c6 33 f2 3c 49 58 6b bd
       0.006181653 -0.032931585 0.029565703 -0.057457242
000050 cd 6c 3b 3c 33 f4 4c bd 06 b7 96 3c a3 ec ca bd
       0.011439514 -0.050037574 0.01839782 -0.09908416
000060 ff 56 72 bd d4 ee 75 3d 9e 8b 27 bd 70 ba ad bd
       -0.059164997 0.060042217 -0.040904634 -0.08482826
000070 22 98 81 3d 7d 3a 33 be 0b 98 a9 3a 2e f2 9f bd
       0.06327845 -0.1750278 0.0012938989 -0.07809864
000080 f8 fa 2f 3d 5b 2d 73 bc 33 0c cc 3d a2 04 44 ba
       0.04296395 -0.014842357 0.09963264 -0.0007477497
000090 e8 37 41 3e 6c 8f dd 3c 56 f3 81 bd 4e 42 44 3c
       0.18868983 0.027045928 -0.06345241 0.011978699
0000a0 01 8a 31 3d 5b 8d 05 3e 93 85 5b 3d 50 87 fd bc
       0.0433445 0.13042204 0.053594183 -0.030948311
0000b0 64 d5 01 3e 5d c1 8e 3c a9 ab 2f 3e e8 ab 78 bd
       0.12679058 0.017426187 0.17155327 -0.060710818
0000c0 b8 b0 18 3e d7 08 cc bd b7 b9 8a 3c 6d b9 30 3e
       0.14911163 -0.099626236 0.016934259 0.17258234
0000d0 c6 ce 87 3d f8 ae 88 bd f5 eb 09 3e 74 ab 59 3d
       0.06631236 -0.06673998 0.13468917 0.053142026
0000e0 df 49 8e 3d dd b2 0c 3e 69 02 11 3e 51 27 03 3d
       0.069476835 0.13740106 0.14161076 0.032019917
0000f0 95 14 23 3e ae e3 a1 bc 9f 24 8e 3d 05 3e 36 3b
       0.1592582 -0.019761886 0.06940579 0.0027807963
000100 c8 74 b8 3c 9b 60 d2 ba aa b0 7e 3b 30 c3 8b bb
       0.022516623 -0.0016050519 0.0038862624 -0.0042652115
000110 3c bc 1e 3c 6d 25 42 3c 0d 26 92 3c d8 02 2b bc
       0.009688433 0.011849743 0.01784041 -0.01043769
000120 8b 04 c1 bc d1 e6 9c bc 4a ee 26 3b 18 25 2c bc
       -0.023561737 -0.01915303 0.0025471621 -0.010506891
000130 14 7e 7f bb d8 b6 36 3b be 94 ba bb 07 f3 71 bb
       -0.003898506 0.002787998 -0.005694001 -0.0036918537
000140 66 48 90 3a de a4 d4 bc a1 a1 90 bb 75 ee 70 3a
       0.0011007905 -0.025957521 -0.004413799 0.00091908063
000150 5a 37 aa bb d0 0c db bb 9a 0e 9b bb 24 4b 88 bc
       -0.0051945867 -0.006684877 -0.0047319653 -0.016637392
000160 16 1d ae bc e5 90 84 3c 59 19 bd bb 68 31 13 3c
       -0.021254104 0.016182372 -0.005770844 0.008983947
000170 5f 10 11 bd a5 81 18 bb 7a 6c 23 3c 90 b0 66 ba
       -0.035416003 -0.0023270634 0.009974593 -0.00088001136
000180 7c 43 2f 3d 72 12 d1 bd 2e 60 23 3d 79 c5 4d bd
       0.042788967 -0.10208596 0.039886646 -0.050237153
000190 1d 86 41 3d 60 d3 30 bc 9f 03 18 be b1 eb 35 bd
       0.04724704 -0.010792583 -0.14845131 -0.044414226
0001a0 ca 08 b7 bb b1 5b f5 3c 0c 14 8c 3b 4d ce f7 bc
       -0.0055857645 0.029950948 0.0042748507 -0.030249739
0001b0 b0 60 d0 3c 6d 4e 26 bd f0 dc 66 3d ec 41 1a be
       0.02543673 -0.040602136 0.056363046 -0.1506421
0001c0 45 d3 c2 3c 46 8a 5a bd 0b 02 3a 3b 00 1f c1 3c
       0.023782382 -0.053354524 0.0028382565 0.023574352
0001d0 56 e2 fa bb 08 5c 6e bd 0e 60 e8 3d 83 40 7c bc
       -0.007656376 -0.058193237 0.11346446 -0.01539624
0001e0 af c3 18 3d ba 98 80 3d 55 0e 11 bd 79 bc 95 bb
       0.037295993 0.0627913 -0.03541406 -0.004569587
0001f0 a2 92 e6 3c 91 f8 09 be d0 60 13 bc 84 55 ec bc
       0.028146092 -0.13473727 -0.00899525 -0.02884937

lstm.weight_ih_l0_reverse f4 [128, 8]
000000 d6 9b 95 bd 9c 57 ec bc 39 d5 de 3d ea f1 df 3d
       -0.07305114 -0.02885037 0.10880513 0.10934813
000010 99 56 03 bb c2 78 18 bd 7c c5 da bd ee 66 9a bd
       -0.002004063 -0.03722454 -0.106821984 -0.075391635
000020 79 3a a3 bd 6c d9 da bd 2a e0 18 bd ce 1c b1 bc
       -0.07970137 -0.10686001 -0.037323155 -0.02162018
000030 2f 8b 4a 3d 3d 50 9e bc e9 93 f2 bc 4b ff a6 3e
       0.049449142 -0.01932537 -0.029611545 0.32616648
000040 cf 7d 4d 3d 3a a2 24 3b ee 87 4f 3d 38 5f a7 bd
       0.05016881 0.0025121109 0.050666742 -0.081724584
000050 61 47 02 3e 0d 26 c2 3d f6 49 23 3d 00 24 60 3e
       0.12722541 0.09479914 0.039865457 0.21888733
000060 b3 ec f8 bd ca be 23 be c9 e6 ec 3c 70 2b a3 3c
       -0.12154522 -0.15990749 0.02891864 0.019918174
000070 48 61 55 bd 7e 8e a5 bd 8c 6d c1 bd 4a fc d4 3d
       -0.052094728 -0.08083819 -0.094447225 0.10399683
000080 ac e2 1e be 54 56 63 3e c6 04 ff 3c 68 3f 68 bd
       -0.15516156 0.222009 0.031130206 -0.056701094
000090 af 3f 12 bd 5c 6d 03 be 37 1b a6 3d 2d 51 4e 3d
       -0.035705265 -0.12834686 0.081106596 0.050370384
0000a0 27 31 59 3e 37 c6 d9 3d 22 2f 95 3c 78 72 02 be
       0.21210156 0.106335096 0.018210951 -0.12738979
0000b0 cf ba 0a bd 09 fd 49 3d b2 78 99 3d 5e 24 bb 3b
       -0.03386956 0.04931358 0.07493724 0.0057111224
0000c0 5b 19 5e 3e e1 4b ab bd 42 26 4b bd 18 42 a2 bc
       0.2168936 -0.08364082 -0.049597032 -0.019806907
0000d0 ed ce e4 bc 4b 38 07 3e 77 c2 15 3d 6c 9c e7 3d
       -0.027930701 0.13205068 0.03656241 0.11309132
0000e0 cd 56 20 be 6f c5 f2 bd 34 c5 ce 3d a6 3d 88 3c
       -0.15658112 -0.11854064 0.10096207 0.016630959
0000f0 d2 3b 55 3e fc ea f2 bd a7 8a 59 be fa 6e 93 bd
       0.20823601 -0.11861226 -0.21244298 -0.071989015
000100 15 ce 8b 3d 78 4a b7 bd f4 5d 1e 3c fa 23 60 3d
       0.068264164 -0.08949751 0.009665955 0.05472181
000110 25 3e 78 b9 08 75 bc 3d a9 bf 75 3d 8b b0 92 3d
       -0.00023674274 0.092020094 0.059997234 0.07162579
000120 c1 9e b3 bc 21 9b 28 be 6a 34 97 bd f5 e8 c0 3d
       -0.021926286 -0.16465427 -0.07383044 0.09419433
000130 fb 0e 51 bd 38 bc 25 3c be 4d 35 be 23 58 55 3d
       -0.051039677 0.010115676 -0.17705438 0.052086007
000140 a5 90 88 bd 3e 98 94 3b 1a 9e f9 3c f3 e6 fa bd
       -0.06668214 0.0045347502 0.030470897 -0.12251081
000150 55 4e 9a bc 03 53 4d bc c7 6a f5 bd ac 87 8a 3d
       -0.01883618 -0.012531999 -0.11983257 0.067641586
000160 c6 d9 39 3d 04 17 83 3d c1 1c 16 3e 08 fd 45 be
       0.0453737 0.06400874 0.14659406 -0.19334805
000170 20 b7 16 bb 44 52 0c 3e 58 90 09 be 9c ad aa 3d
       -0.0022997335 0.13703257 -0.13433969 0.083338946
000180 38 6d 01 be df b6 8e bd c1 97 aa 3d e1 e5 9c 3d
       -0.1263932 -0.06968474 0.08329726 0.076610334
000190 38 1e a1 3d fa ee 23 3e 52 40 5f bd 87 94 5f 3d
       0.07867092 0.16009131 -0.0545047 0.054585006
0001a0 de eb 9a bd 59 74 bb bd 9e 42 3e be 03 6b 81 3d
       -0.07564519 -0.09153051 -0.185801 0.06319239
0001b0 74 0c db 3d f8 d2 1d be 2e 85 04 be 08 25 6b 3d
       0.106957346 -0.1541251 -0.12941429 0.057408363
0001c0 6f bd 10 3e b9 fa 55 3d 87 99 38 3e 91 70 a1 3e
       0.14134763 0.05224106 0.18027316 0.31531194
0001d0 19 b8 25 3e 5b 56 0f bd d1 88 d1 bb eb 14 04 3e
       0.16183509 -0.034994464 -0.0063944836 0.12898605
0001e0 cc 59 17 be fd 17 59 be 48 1b e9 bd 5a 20 95 3c
       -0.14780349 -0.21200557 -0.113821566 0.018203903
0001f0 40 8a 43 bc 54 f1 4d 3d ca 43 02 3e 7d 86 46 3b
       -0.011934817 0.050278977 0.12721172 0.0030292564
000200 ac 3c d0 bd 90 96 01 bd 09 b6 27 3e 9e 01 fb bc
       -0.10167822 -0.03163773 0.16378035 -0.03064042
000210 84 2a 4b 3e 2c 97 a7 3b 46 f1 2f bd 31 b1 83 bc
       0.19840437 0.0051144566 -0.042954706 -0.016075702
000220 ee c7 04 be 49 ef 37 3d 91 71 0b 3d 68 36 f8 bc
       -0.12966892 0.044905934 0.034043852 -0.03029938
000230 2e 5a 93 bd 0c e7 19 be 79 d2 0e bc 0d 72 03 bc
       -0.07194935 -0.15029544 -0.008717173 -0.008022797
000240 16 8b 92 3d 01 81 7a 3d 19 0b 0f bc d3 ef af 3d
       0.07155435 0.061158184 -0.008730673 0.08590665
000250 2d 8e 76 3d c7 9f 36 3e 02 7f 6a be a8 f5 b0 bd
       0.060194183 0.17834388 -0.22900012 -0.08640605
000260 06 63 36 3e 15 2e cb bc fd ac ad 3b e4 38 0c 3e
       0.17811212 -0.024802247 0.005300163 0.13693577
000270 b4 b5 8f bd 83 5a eb 3d ee 38 15 3e 1b b5 46 3d
       -0.07017079 0.11491873 0.14572498 0.04851256
000280 02 33 bc bd 61 5e b8 3c 19 df b9 3d a4 66 9b 3d
       -0.091894165 0.02250594 0.090757556 0.075879365
000290 87 94 51 3d f6 93 9d bd f5 08 43 bd 72 39 02 bd
       0.051167037 -0.07694237 -0.047615964 -0.031793065
0002a0 69 ef 18 3c 0e d1 0b 3c ba a4 16 bd d7 f4 92 3b
       0.009334424 0.008533729 -0.03677819 0.0044847536
0002b0 09 fe f1 bd 61 ec f1 3d a7 01 fa bc 37 f8 2d be
       -0.118160315 0.11812664 -0.030518366 -0.16989218
0002c0 45 af f8 3c 7e 70 45 3e 12 df 3e bd ab 2e ae 3d
       0.030357013 0.19281194 -0.046599455 0.08504995
0002d0 09 70 d0 3c c1 54 df 3b 4f 65 94 3d 0d 3c 8d 3d
       0.025444048 0.0068155234 0.072458856 0.068962194
0002e0 93 a9 e6 3d 5c c5 12 be 24 88 f7 3d aa a8 00 be
       0.112628125 -0.14333099 0.12086514 -0.1256434
0002f0 a9 7d 0b 3e 1f c2 43 3e 14 8e bb 3d 52 06 d2 3c
       0.13622154 0.1911702 0.091579586 0.02563778
000300 70 cb 0c 3e 7f 3f 26 3c 0a d8 15 be 46 29 ff bd
       0.1374948 0.010146975 -0.14633194 -0.12459044
000310 1b dd 35 3d 67 f4 01 bc 87 c9 d0 3c 0f 9a 0f bd
       0.044400316 -0.007931805 0.02548672 -0.03505903
000320 8d c0 ae bc df 4a f7 3d 67 ed d7 3d ea 9e eb b9
       -0.02133205 0.120748274 0.10543328 -0.00044941093
000330 54 a6 b7 bd 26 2d 91 bb 15 b7 9d bc 8a d3 bf bc
       -0.089672714 -0.004430431 -0.01925234 -0.0234163
000340 5d db d4 3b a5 48 98 be 1c 85 7a 3d d6 10 05 be
       0.0064958767 -0.29742923 0.0611621 -0.12994704
000350 ea 2f e4 bd 94 b1 fe 3d b4 f4 76 bb c7 dc 1c bd
       -0.111419514 0.12436214 -0.0037682476 -0.038296487
000360 59 d5 11 3d a8 74 05 be d2 e7 a1 3d 37 b3 60 3e
       0.035603855 -0.13032782 0.07905544 0.21943365
000370 06 b9 fb bc 37 0f 73 3c 09 32 9b bb 65 c7 c5 bd
       -0.030727874 0.0148351705 -0.0047361893 -0.09657172
000380 dc bc 0d 3e c8 b9 9d bd 65 cd 9c bd 73 8c ea bd
       0.13841575 -0.077014506 -0.076563634 -0.1145257
000390 58 b9 96 3d b0 f4 93 3d 95 81 cc 3c 93 cd 38 bd
       0.0735957 0.07224405 0.024964133 -0.045117926
0003a0 db 61 77 bd 11 96 0f bd 95 18 29 bd 32 9b 50 3d
       -0.060396057 -0.035055224 -0.04128321 0.050929256
0003b0 a8 6f 64 3d b6 b8 e0 bd e8 a2 47 bd 95 76 26 bd
       0.055770546 -0.10972731 -0.048739344 -0.040640432
0003c0 1e a2 f8 3c fe 9a 89 3d 45 e5 64 3e 2e 3b f5 3c
       0.030350741 0.067190155 0.22353084 0.029935446
0003d0 ed e1 03 3d 65 fc 16 3e 3b ad 41 bd 2e 3c a2 3d
       0.03219788 0.14744718 -0.047284346 0.079216346
0003e0 58 43 b0 bd 20 77 1e 3c 19 e8 01 3e 6d e9 45 bd
       -0.08606595 0.009671956 0.12686194 -0.048318315
0003f0 6f 6e 60 bc 18 c4 12 bd 4a 62 4a 3e bc 4d 3e 3e
       -0.013698204 -0.03583154 0.19764057 0.18584341

lstm.weight_hh_l0_reverse f4 [128, 32]
000000 ec 33 21 3d 5c 74 5f bd 9f f8 0b 3d 7b ba ef bd
       0.039356157 -0.05455433 0.03417265 -0.1170549
000010 44 4f 49 bc f9 30 30 3c 5a 72 05 3d 9c 1b 9c 3d
       -0.012286965 0.0107538635 0.032579757 0.076224536
000020 f3 bb 51 be a9 57 0b be 61 ec 28 3e 68 46 bd bc
       -0.20481853 -0.13607658 0.16496421 -0.023104861
000030 00 d9 29 bd ed 51 b2 bd c6 d9 88 bd 53 4b eb bd
       -0.041466713 -0.08707032 -0.06682162 -0.11488976
000040 9f 6f 8a bd 83 47 ca bc e2 2d a1 bb 09 93 5a bd
       -0.06759571 -0.024692303 -0.0049187997 -0.05336288
000050 6f d6 f8 bd 64 73 5b 3e 37 4b df bb 04 27 ba bd
       -0.12150275 0.21430737 -0.006814386 -0.09089473
000060 84 ec 1e 3c 40 09 73 3d b6 c3 49 3d b4 a6 59 bd
       0.009699944 0.059334993 0.04925891 -0.053137496
000070 c5 d8 dd 3d 27 9e 14 be 99 08 2b 3e 1d a5 d0 bc
       0.10832361 -0.14513455 0.16702498 -0.025469357
000080 0f be dd bd bb c5 bc 3d 50 e9 e5 bd 2f d6 89 3c
       -0.108272664 0.092174016 -0.112261415 0.016825764
000090 4b 02 ca bd b8 d7 c0 bd 12 6a 90 3c 20 58 7d bd
       -0.098637186 -0.09416145 0.017628703 -0.06185162
0000a0 fd ae ec 3d ec db d5 bd 8f 01 34 be a6 9b 65 bc
       0.11556814 -0.104423374 -0.1757872 -0.01401416
0000b0 8e 15 6f 3c 4d ad 03 3d dc a3 54 3e 58 c6 3d 3d
       0.014592541 0.032147694 0.20765632 0.046331733
0000c0 40 37 1a bd 40 59 6e bd a4 96 01 3e 75 4c eb bc
       -0.037650347 -0.058190584 0.12655121 -0.028722981
0000d0 6a f0 a9 bc 0f d3 ed 3d 6d 02 0b 3e c6 53 0c 3d
       -0.020744521 0.11612522 0.13575144 0.03425958
0000e0 fd 34 46 3d b1 96 76 bd 3e 02 f3 bd 7c e6 50 3d
       0.048390377 -0.060202304 -0.11865662 0.051001057
0000f0 c7 c8 5d bd 9f c1 29 3c 35 cd a6 3b 78 8a 4e 3d
       -0.054146554 0.010361104 0.0050903806 0.050425023
000100 6f 8a 83 bc 96 89 25 3e 18 cb e5 3c a6 6b 10 3d
       -0.016057221 0.16165766 0.028050944 0.03525891
000110 88 f4 95 bd a9 90 98 3c cc 22 5b 3d 2a f2 7b bd
       -0.07322031 0.018623667 0.05349998 -0.061510243
000120 db 62 29 bc 37 c7 62 3d af 8b e1 bd 15 b3 01 be
       -0.01033851 0.055365767 -0.11012971 -0.1266597
000130 19 cc 31 bd c4 41 3f 3d 0e b5 d8 39 6f 11 da bc
       -0.043407533 0.04669358 0.00041333627 -0.026619641
000140 2c bb c6 bc 15 27 8b bc 33 0e 33 be ce 1e b8 bb
       -0.024259172 -0.01698641 -0.17485885 -0.0056189066
000150 e4 9b 4c be aa 83 37 bd 70 fd 86 3d bd 35 4d bd
       -0.19981343 -0.0448033 0.06591308 -0.050100077
000160 f4 a9 95 3d 47 0c 4f 3d b6 55 97 bd 99 8d 12 3e
       0.073078066 0.050548818 -0.07389395 0.14311828
000170 13 2d 15 3e 76 0f 08 3d e2 a6 e6 bd db c8 eb bd
       0.14567976 0.03321787 -0.11262299 -0.115129195
000180 d8 f9 05 bd 84 b9 1f bd 8a 1b cd bd db f1 9b bd
       -0.032708973 -0.03899528 -0.10015018 -0.0761449
000190 bc d0 c2 3d 97 2c 10 bc 15 46 8a bd 95 94 4e 3c
       0.09512469 -0.008799694 -0.06751648 0.012608667
0001a0 f1 1b 05 3e 61 c0 1c bd dc 1e 94 bd 2e 0d b5 bd
       0.1299894 -0.038269404 -0.072324485 -0.088404045
0001b0 d2 05 14 bd eb d2 8a bd c8 32 68 bd 60 47 d6 bc
       -0.036138363 -0.06778511 -0.056689054 -0.026157081
0001c0 bc 5f 91 3d bc 03 b7 bb 73 ab 80 be 2f 77 1b be
       0.07098338 -0.005585162 -0.25130805 -0.15182184
0001d0 ed 2b a7 3c a5 09 08 be 0e 29 a9 3c b5 b6 59 3d
       0.020406688 -0.13284929 0.02064946 0.05315276
0001e0 53 11 08 3d 3c eb 15 3d 8d 60 cb bc e8 ff dd bd
       0.033219647 0.03660129 -0.024826312 -0.10839826
0001f0 d0 25 d7 3d 6c 58 28 bc b4 a3 3e bd 8f 18 e7 bd
       0.10505259 -0.010274988 -0.04654284 -0.11283981
000200 e7 d4 86 bd df 6b c0 3d ef eb ed bc b0 95 b9 3d
       -0.06583577 0.09395575 -0.029043166 0.09061754
000210 ba c9 10 be a1 b7 ca bb ae 23 a7 3d 5a 1c 6e 3d
       -0.14139453 -0.006186441 0.08161102 0.058132507
000220 8c 30 dd 3d a4 09 cd bd 81 a9 d7 bd b4 c3 e1 3c
       0.10800275 -0.100116044 -0.10530377 0.027559139
000230 41 67 25 3d 59 7c 88 3c ea e8 0b be ae e3 53 3d
       0.040381674 0.016660856 -0.13663068 0.051730804
000240 92 30 14 3e 78 f9 80 3b 3b 74 24 bd 00 34 24 bd
       0.14471653 0.003935989 -0.04014991 -0.040088654
000250 a0 32 0c bd 6f de ac 3d 86 c9 93 bc c9 88 08 bd
       -0.034227967 0.08440863 -0.01804043 -0.033333573
000260 10 9b 7f bd c8 ed 2c bc 2b e3 3f bd ef d9 94 3d
       -0.06240374 -0.010554738 -0.046847504 0.0726813
000270 7f c3 8f bd 04 d0 82 bc 05 52 c3 3d e4 1d 98 3d
       -0.0701971 -0.01596833 0.09537128 0.07427576
000280 2a c4 45 bc 26 c3 11 bd 02 44 dd bd 1d 88 98 bc
       -0.012070695 -0.0355865 -0.10803987 -0.018619591
000290 7b d9 c9 bc 65 a5 d4 bd b7 6e 28 be 40 14 ae 3c
       -0.024639836 -0.10383109 -0.16448484 0.02124989
0002a0 f0 82 ef 3c 7b 29 a1 bc ac 9c 20 3e ea a4 4c bd
       0.02923724 -0.0196731 0.15684766 -0.04996196
0002b0 8a d3 d5 bc aa 0a 57 bd 3c 0f 05 be 62 a8 1d bd
       -0.026101846 -0.052500404 -0.12994093 -0.03849066
0002c0 fd 48 33 be ae ba 16 3e 01 fb e9 bd 49 b8 00 37
       -0.17508312 0.1471965 -0.11424828 7.672302e-06
0002d0 a5 b6 27 3d 86 da 86 3d 56 36 b9 3d 10 c4 2d 3d
       0.040945668 0.06584649 0.09043567 0.042423308
0002e0 67 7c 02 3d 85 49 32 bd 32 af 1a 3d ea dd db 3d
       0.03185692 -0.043527145 0.037764736 0.10735686
0002f0 f8 20 36 3d d1 63 b7 bd 3e a0 e6 bc 62 d5 28 bd
       0.044465035 -0.08954585 -0.028152581 -0.041219123
000300 23 19 4b bc 31 24 c0 3d ce 05 2a 3d ab 36 e9 3d
       -0.01239613 0.09381903 0.041509442 0.1138738
000310 3a ad 31 be 3a 3e 81 bc 6d 30 a1 bd 19 79 d8 3c
       -0.17351237 -0.015776742 -0.078705646 0.026424931
000320 18 c8 5a bd 80 be e8 bc f4 60 97 3d 93 4f b3 3c
       -0.05341348 -0.02841115 0.07391539 0.02188853
000330 49 cb f7 bc fb 76 5a be 64 c9 0a be 00 20 e3 3d
       -0.030248301 -0.2133445 -0.13553387 0.11090088
000340 54 b0 58 3d 09 81 bc bd c9 a2 9a 3a 18 54 67 bd
       0.052902535 -0.09204299 0.0011797781 -0.056476682
000350 66 e8 f0 3c fc b1 73 bd 53 02 02 3e f8 4d 8c bb
       0.029407691 -0.05949591 0.12696199 -0.0042817555
000360 65 2b 52 bc 18 ec fc 3d 71 e6 f7 3c 48 72 c1 3c
       -0.012827729 0.12349719 0.03026125 0.023614064
000370 62 bd 38 be 85 75 3f 3d b0 ce 81 bb f1 a6 a0 bd
       -0.18040994 0.046742935 -0.0039614066 -0.078443415
000380 69 db 64 bd 81 7d 91 bd 68 a8 b6 3c 2d a8 2a 3e
       -0.05587331 -0.07104016 0.0222971 0.16665716
000390 dc 40 6d 3c 04 1a 9e bb 00 80 b2 bc 35 4d cd bd
       0.014480796 -0.0048248786 -0.02178955 -0.10024492
0003a0 74 47 00 3e 7b 03 d9 3d 80 fa 28 3a 34 ad b1 3d
       0.12527257 0.10596367 0.0006446019 0.08675614
0003b0 01 24 a1 3d 76 6e 15 3e f6 bf 84 bd 35 33 7b bc
       0.07868195 0.14592919 -0.06481926 -0.015332033
0003c0 02 4a 0b bd aa a8 34 3c 6a 71 0a be 52 b4 0f 3e
       -0.034006126 0.011026541 -0.13519827 0.1403363
0003d0 0d 9a 5b bc d1 d4 97 bd 3a 86 38 bc 0e a9 d2 3b
       -0.013403428 -0.074136384 -0.011262471 0.0064288443
0003e0 da 44 28 be c0 73 6f 3d b3 f6 69 3c ea 7b b0 bc
       -0.16432515 0.058459997 0.014280009 -0.021543462
0003f0 ef 04 98 3d 68 fa 86 bd e2 76 dc bb 18 04 11 be
       0.07422816 -0.0659073 -0.006728039 -0.14161718

lstm.bias_ih_l0_reverse f4 [128]
000000 ba 91 04 be bf 5e f6 bd 23 18 02 3d 8b 79 a1 bd
       -0.12946215 -0.1202979 0.0317613 -0.078845106
000010 40 ca 40 3d 58 31 3a 3d 7e 68 13 be de 4c ee bd
       0.04706788 0.045457214 -0.1439533 -0.11635755
000020 e0 b7 e2 bc 34 d3 65 be e6 22 5b bd 3e aa df bc
       -0.027675569 -0.22443849 -0.05350008 -0.027302857
000030 00 0d 33 b8 a6 a6 9d bd 75 8f e4 bb e6 ab e7 bd
       -4.2689033e-05 -0.07697801 -0.006975109 -0.11312084
000040 8f 8c 71 be 03 f8 98 3c 19 29 6d be be 72 0c 3d
       -0.23588775 0.018672949 -0.23160209 0.034289114
000050 60 c9 be bc 6a 0f 79 3c ee 81 96 bc 72 8d e7 bd
       -0.023289382 0.015201429 -0.018372502 -0.113062754
000060 03 b9 aa 3c 0f c0 39 3d 0b 37 91 be 2c a6 8d be
       0.020840174 0.045349177 -0.28362307 -0.27665842
000070 49 4c d2 bd 30 ee b6 bd 05 bd 75 3c 57 d8 c2 3d
       -0.102684565 -0.089321494 0.014998679 0.0951392
000080 00 00 00 00 00 00 00 00 00 00 00 00 00 00 00 00
       0.0 0.0 0.0 0.0
000090 00 00 00 00 00 00 00 00 00 00 00 00 00 00 00 00
       0.0 0.0 0.0 0.0
0000a0 00 00 00 00 00 00 00 00 00 00 00 00 00 00 00 00
       0.0 0.0 0.0 0.0
0000b0 00 00 00 00 00 00 00 00 00 00 00 00 00 00 00 00
       0.0 0.0 0.0 0.0
0000c0 00 00 00 00 00 00 00 00 00 00 00 00 00 00 00 00
       0.0 0.0 0.0 0.0
0000d0 00 00 00 00 00 00 00 00 00 00 00 00 00 00 00 00
       0.0 0.0 0.0 0.0
0000e0 00 00 00 00 00 00 00 00 00 00 00 00 00 00 00 00
       0.0 0.0 0.0 0.0
0000f0 00 00 00 00 00 00 00 00 00 00 00 00 00 00 00 00
       0.0 0.0 0.0 0.0
000100 08 bf 25 bc ca 26 aa bc 2e a0 37 3c 5a 94 31 bc
       -0.010116346 -0.02077045 0.011207623 -0.010838592
000110 3a 7d 28 3c ae 10 3b bd 67 cc 8c bd a4 c5 7d 3c
       0.010283763 -0.045670204 -0.06874924 0.015489016
000120 94 6f 2e bd 94 39 26 3c fe 4b bc 3c f5 08 7e 3c
       -0.042586878 0.010145564 0.022985455 0.015505065
000130 60 6d 86 bb df bd 41 3c 78 db 04 bc 42 d7 9e 3b
       -0.004102394 0.011825054 -0.008108966 0.004847438
000140 3d 01 1c 3b 7a 97 bb bb 9b f4 01 3c ff 3f 5a bc
       0.002380445 -0.0057248445 0.007931854 -0.013320922
000150 4b fd 8c 3d 13 b7 1b bd 3a 3c 77 bd 67 1d c7 3b
       0.06884249 -0.03801639 -0.06036017 0.006076503
000160 fb d1 46 3a 37 b5 58 3d 96 50 b9 3b e6 67 a5 3b
       0.000758439 0.052907195 0.0056553585 0.005047786
000170 d8 71 52 3a 8f 35 20 3c 97 d1 87 bc af d3 88 bd
       0.00080278283 0.009778394 -0.016579432 -0.066810004
000180 9a 9f 00 be 78 e0 e5 bd 05 38 50 bb 6e e0 be bd
       -0.12560883 -0.11224455 -0.0031771671 -0.0932015
000190 d4 1d b2 bd 5b a2 13 3d 7a 23 d6 bd 3b 99 d3 bd
       -0.086970955 0.036043506 -0.10455985 -0.10331961
0001a0 fa 79 5c 3d 2c 06 69 be bb d5 03 3d ba 2d 0f bd
       0.053827263 -0.2275626 0.03218625 -0.034955718
0001b0 3b 87 e3 bc 2d 1d 8e bd 6b 8f ed 3b 89 84 50 be
       -0.027774444 -0.069391586 0.007249763 -0.20363058
0001c0 3f 89 50 be f6 c2 0c 3d 57 57 52 be 9b 09 65 bd
       -0.20364855 0.034365617 -0.2054113 -0.055917364
0001d0 64 aa 0f bd 5b 12 32 bc 76 7f 36 bd 81 23 1c be
       -0.035074607 -0.010868634 -0.04455515 -0.15247919
0001e0 f0 59 21 3d da b3 42 bc 94 d5 a9 be 3f 51 88 be
       0.03939241 -0.0118837 -0.3317076 -0.26624486
0001f0 86 e7 e7 bd 64 e6 b0 bd 7b d9 32 3c ed 90 1c 3d
       -0.113234565 -0.086376935 0.010916109 0.03822415

lstm.bias_hh_l0_reverse f4 [128]
000000 ba 91 04 be bf 5e f6 bd 23 18 02 3d 8b 79 a1 bd
       -0.12946215 -0.1202979 0.0317613 -0.078845106
000010 40 ca 40 3d 58 31 3a 3d 7e 68 13 be de 4c ee bd
       0.04706788 0.045457214 -0.1439533 -0.11635755
000020 e0 b7 e2 bc 34 d3 65 be e6 22 5b bd 3e aa df bc
       -0.027675569 -0.22443849 -0.05350008 -0.027302857
000030 00 0d 33 b8 a6 a6 9d bd 75 8f e4 bb e6 ab e7 bd
       -4.2689033e-05 -0.07697801 -0.006975109 -0.11312084
000040 8f 8c 71 be 03 f8 98 3c 19 29 6d be be 72 0c 3d
       -0.23588775 0.018672949 -0.23160209 0.034289114
000050 60 c9 be bc 6a 0f 79 3c ee 81 96 bc 72 8d e7 bd
       -0.023289382 0.015201429 -0.018372502 -0.113062754
000060 03 b9 aa 3c 0f c0 39 3d 0b 37 91 be 2c a6 8d be
       0.020840174 0.045349177 -0.28362307 -0.27665842
000070 49 4c d2 bd 30 ee b6 bd 05 bd 75 3c 57 d8 c2 3d
       -0.102684565 -0.089321494 0.014998679 0.0951392
000080 00 00 00 00 00 00 00 00 00 00 00 00 00 00 00 00
       0.0 0.0 0.0 0.0
000090 00 00 00 00 00 00 00 00 00 00 00 00 00 00 00 00
       0.0 0.0 0.0 0.0
0000a0 00 00 00 00 00 00 00 00 00 00 00 00 00 00 00 00
       0.0 0.0 0.0 0.0
0000b0 00 00 00 00 00 00 00 00 00 00 00 00 00 00 00 00
       0.0 0.0 0.0 0.0
0000c0 00 00 00 00 00 00 00 00 00 00 00 00 00 00 00 00
       0.0 0.0 0.0 0.0
0000d0 00 00 00 00 00 00 00 00 00 00 00 00 00 00 00 00
       0.0 0.0 0.0 0.0
0000e0 00 00 00 00 00 00 00 00 00 00 00 00 00 00 00 00
       0.0 0.0 0.0 0.0
0000f0 00 00 00 00 00 00 00 00 00 00 00 00 00 00 00 00
       0.0 0.0 0.0 0.0
000100 08 bf 25 bc ca 26 aa bc 2e a0 37 3c 5a 94 31 bc
       -0.010116346 -0.02077045 0.011207623 -0.010838592
000110 3a 7d 28 3c ae 10 3b bd 67 cc 8c bd a4 c5 7d 3c
       0.010283763 -0.045670204 -0.06874924 0.015489016
000120 94 6f 2e bd 94 39 26 3c fe 4b bc 3c f5 08 7e 3c
       -0.042586878 0.010145564 0.022985455 0.015505065
000130 60 6d 86 bb df bd 41 3c 78 db 04 bc 42 d7 9e 3b
       -0.004102394 0.011825054 -0.008108966 0.004847438
000140 3d 01 1c 3b 7a 97 bb bb 9b f4 01 3c ff 3f 5a bc
       0.002380445 -0.0057248445 0.007931854 -0.013320922
000150 4b fd 8c 3d 13 b7 1b bd 3a 3c 77 bd 67 1d c7 3b
       0.06884249 -0.03801639 -0.06036017 0.006076503
000160 fb d1 46 3a 37 b5 58 3d 96 50 b9 3b e6 67 a5 3b
       0.000758439 0.052907195 0.0056553585 0.005047786
000170 d8 71 52 3a 8f 35 20 3c 97 d1 87 bc af d3 88 bd
       0.00080278283 0.009778394 -0.016579432 -0.066810004
000180 9a 9f 00 be 78 e0 e5 bd 05 38 50 bb 6e e0 be bd
       -0.12560883 -0.11224455 -0.0031771671 -0.0932015
000190 d4 1d b2 bd 5b a2 13 3d 7a 23 d6 bd 3b 99 d3 bd
       -0.086970955 0.036043506 -0.10455985 -0.10331961
0001a0 fa 79 5c 3d 2c 06 69 be bb d5 03 3d ba 2d 0f bd
       0.053827263 -0.2275626 0.03218625 -0.034955718
0001b0 3b 87 e3 bc 2d 1d 8e bd 6b 8f ed 3b 89 84 50 be
       -0.027774444 -0.069391586 0.007249763 -0.20363058
0001c0 3f 89 50 be f6 c2 0c 3d 57 57 52 be 9b 09 65 bd
       -0.20364855 0.034365617 -0.2054113 -0.055917364
0001d0 64 aa 0f bd 5b 12 32 bc 76 7f 36 bd 81 23 1c be
       -0.035074607 -0.010868634 -0.04455515 -0.15247919
0001e0 f0 59 21 3d da b3 42 bc 94 d5 a9 be 3f 51 88 be
       0.03939241 -0.0118837 -0.3317076 -0.26624486
0001f0 86 e7 e7 bd 64 e6 b0 bd 7b d9 32 3c ed 90 1c 3d
       -0.113234565 -0.086376935 0.010916109 0.03822415

batch_norm.weight f4 [64]
000000 8d 32 4c 3f 16 fb 32 3f 34 a2 58 3f 38 00 47 3f
       0.79764634 0.69914377 0.846225 0.7773471
000010 52 bf 4b 3f 3c 1a 63 3f ca 91 40 3f 69 64 5b 3f
       0.79588807 0.88711905 0.75222456 0.8570009
000020 02 d5 58 3f 4d a7 5b 3f 5e af 52 3f 4d 88 3b 3f
       0.84700024 0.85802156 0.8229884 0.73254853
000030 ee 31 41 3f ef d0 56 3f 55 12 47 3f e9 c4 4d 3f
       0.7546681 0.8391256 0.7776235 0.80378586
000040 68 e0 62 3f 9f cc 39 3f 44 60 41 3f 78 31 58 3f
       0.88623667 0.7257785 0.75537515 0.84450483
000050 07 d8 48 3f 78 c8 3f 3f 8f 5a 4d 3f f3 91 46 3f
       0.7845463 0.74915266 0.80216306 0.7756645
000060 66 5e 40 3f b5 4b 54 3f ea c5 4c 3f 05 77 47 3f
       0.7514404 0.8292802 0.7998949 0.77915984
000070 17 36 62 3f 63 3b 6b 3f 33 e5 4a 3f 4b c5 36 3f
       0.88363785 0.9188749 0.7925598 0.71394795
000080 2e 37 41 3f 13 d5 3f 3f 63 59 48 3f eb 1d 50 3f
       0.7547482 0.749345 0.78261393 0.8129565
000090 90 14 5b 3f f4 93 47 3f bb d6 55 3f 25 8f 45 3f
       0.8557825 0.77960134 0.8353078 0.77171546
0000a0 53 ac 45 3f 32 ad 39 3f 4f 4a 3f 3f 62 e1 41 3f
       0.7721607 0.725299 0.7472276 0.7573453
0000b0 6a 72 4a 3f 70 1c 48 3f c1 46 47 3f cc f8 37 3f
       0.7908083 0.7816839 0.77842337 0.7186401
0000c0 d8 39 33 3f 7d cb 4d 3f 48 18 35 3f b8 1b 39 3f
       0.7001014 0.80388623 0.70740175 0.7230792
0000d0 05 0a 3d 3f fb ea 60 3f 5f 64 54 3f 8e 89 47 3f
       0.73843414 0.8785855 0.82965654 0.77944267
0000e0 3f 68 47 3f 01 b4 5a 3f 61 af 27 3f 4c 86 26 3f
       0.7789344 0.85430914 0.6550198 0.6504867
0000f0 bf 45 4a 3f 2e 15 49 3f a7 97 4b 3f 45 bf 59 3f
       0.79012674 0.7854794 0.7952828 0.8505748

batch_norm.bias f4 [64]
000000 5f 32 9b 3e 38 36 97 3e dc 48 b6 3e c6 e3 a3 3e
       0.30311868 0.29533553 0.35602462 0.32009715
000010 5a d8 b7 3e af 0a b3 be db f9 a8 be bc 6c b8 be
       0.3590725 -0.34969088 -0.33003125 -0.36020458
000020 2d d1 b1 be 02 f5 e0 3e cb 62 a5 be 45 5b a8 3e
       -0.347299 0.43936926 -0.32301936 0.32882133
000030 30 81 5e be b2 46 c3 3e bf f7 aa be 36 69 94 be
       -0.21728969 0.38139874 -0.3339214 -0.2898652
000040 f1 2b d8 be 75 ed 84 be 8b 53 9b be 03 fb db be
       -0.42221025 -0.25962415 -0.30337176 -0.42964944
000050 41 f5 b1 be 5d b8 8b 3e e9 8b c5 be c2 67 a3 3e
       -0.34757426 0.27289096 -0.38583305 0.31915098
000060 58 e4 a2 be a6 7f a7 3e 30 60 8a 3e 86 8b 9d be
       -0.31814837 0.32714576 0.2702651 -0.3077051
000070 ab 93 01 3f 7c ab dd be 01 99 95 3e 77 7a 9f 3e
       0.5061595 -0.43294895 0.29218295 0.3114812
000080 f6 4a 8a be d9 ce a7 3e b0 b0 9f 3e 72 ef a6 3e
       -0.27010316 0.32775 0.3118949 0.32604557
000090 70 99 ae be f0 ec 94 3e 48 03 a2 3e 12 ae a0 be
       -0.3410144 0.2908702 0.31643128 -0.31382805
0000a0 e1 32 93 be e9 3e 92 3e 23 48 97 3e 64 2b 9f 3e
       -0.28749755 0.28563622 0.29547223 0.31087792
0000b0 4f 35 a5 3e 74 56 a6 be 36 cb 9b 3e 69 09 8c 3e
       0.32267234 -0.32487833 0.30428475 0.2735093
0000c0 de 22 98 3e fd 14 b5 3e 6c d5 96 3e cc 01 a1 3e
       0.29714102 0.35367575 0.29459703 0.31446683
0000d0 ee d9 96 3e 43 8f e9 3e 2c a2 98 be 73 56 95 be
       0.29463142 0.45617113 -0.29811227 -0.29167518
0000e0 78 e2 8d 3e b6 70 b5 3e 55 8d 99 be cd 4d a0 be
       0.27711844 0.35437554 -0.2999064 -0.31309357
0000f0 ad 66 84 be d0 01 8b 3e 2b 6f af be 93 cc c2 be
       -0.25859585 0.2714982 -0.34264502 -0.38046703

batch_norm.running_mean f4 [64]
000000 c3 34 e0 3c 1a 13 a3 3c f1 24 a8 3e 50 61 74 3c
       0.027368909 0.01990657 0.32840684 0.014915779
000010 62 73 58 3e 08 d4 64 be a8 56 78 3c 29 fd d4 bd
       0.21137765 -0.22346509 0.015157379 -0.10399849
000020 82 1c bb bb 29 98 85 3e 69 d5 b0 bd c0 d9 e1 3c
       -0.0057101855 0.2609265 -0.08634455 0.027569652
000030 4e d0 4c 3e 7c f6 17 be 47 2a 4f be 2a 33 26 3d
       0.20001337 -0.1484012 -0.20230971 0.040576138
000040 9e 80 81 be 63 6c 4c 3c 81 fb d8 bd ca 3f 11 bd
       -0.2529344 0.012477013 -0.105948456 -0.035461225
000050 19 1e 2a bc 90 3e 51 bc c3 70 10 be ac 2a 3d 3d
       -0.010383152 -0.012771264 -0.14105515 0.046183273
000060 f0 1f 08 be a1 fe cb 3e 68 34 aa bd 47 76 3f bd
       -0.13293433 0.39842704 -0.08310777 -0.046743657
000070 2a 60 f2 3d 06 d4 48 bd f2 8a cf bd 40 09 96 3d
       0.11834748 -0.049030326 -0.101339236 0.07325983
000080 61 09 57 bb 55 28 ea bb 0f cf bb bc 68 f5 6a bb
       -0.0032811987 -0.0071459212 -0.022925882 -0.003585184
000090 ed fb 17 3d 8f 94 3a 3d ce 74 c9 bc 92 79 9e 3b
       0.03710549 0.045551833 -0.02459183 0.0048362697
0000a0 10 54 55 bc aa ca 35 3b 5e 20 c3 bc fa 3f 6d 3d
       -0.01302053 0.0027739205 -0.023819145 0.05792234
0000b0 e9 2c 2e 3b 2b 73 7f 3b be fe 52 3d ad e4 01 3b
       0.0026577062 0.0038978558 0.051512472 0.001982014
0000c0 76 e7 5f 3a 24 be cd bb 4f dc 0c 3b a9 49 ac 3c
       0.0008541265 -0.00627877 0.002149362 0.021031218
0000d0 44 14 40 3d 85 f4 48 bd 8b 7f 9c bd d6 d7 0a 3b
       0.046894327 -0.049061317 -0.076415144 0.0021185777
0000e0 4d ef 3e bd 13 1e 95 3c 5f c7 a4 3a b5 80 9a 3a
       -0.046614934 0.018202817 0.0012571624 0.0011787625
0000f0 c5 e4 a1 3a 07 e3 32 3b e6 11 89 bd 9a 06 fe 39
       0.0012351504 0.0027295963 -0.06692867 0.00048451574

batch_norm.running_var f4 [64]
000000 96 d1 02 3d 35 08 ce 3a 22 df fb 3c aa 5f db 3a
       0.031938158 0.0015718999 0.030746046 0.0016736884
000010 92 21 8c 3d 5f ef 77 3c f4 db ea 3a c7 6d 67 3b
       0.068423405 0.015132754 0.0017918334 0.0035313235
000020 79 02 35 3c 9c ce 5f 3d 96 4c 4f 3c 93 b1 10 3d
       0.011047953 0.054640397 0.012652537 0.035325598
000030 9e 84 27 3d d2 81 2d 3d 48 e9 2f 3d ab d5 9a 3c
       0.040897958 0.042360134 0.042947084 0.018900713
000040 6f 62 ed 3c 0d 01 9c 3b 21 0f bd 3b 62 4d a1 3d
       0.0289776 0.0047608675 0.005769626 0.07876088
000050 65 2e 7c 3d a9 5e c2 3b 99 f7 44 3c 6c b7 da 3c
       0.061567683 0.0059316945 0.0120219225 0.02669879
000060 d7 a5 e3 3c bd 51 47 3d 77 42 67 3d f4 e1 41 3b
       0.02778904 0.048661936 0.05645987 0.0029584141
000070 fb 7f 83 3d ae f9 ba 39 35 57 ae 3c 0f c2 30 3d
       0.06420895 0.0003566271 0.021281818 0.04315382
000080 c9 e1 aa 36 36 96 40 37 d5 52 09 3c d4 66 b8 37
       5.0926797e-06 1.14790655e-05 0.008381565 2.1982392e-05
000090 7f 00 2f 3c 3e c1 44 3d fb d6 6a 38 50 9b 12 38
       0.010681271 0.048035853 5.5990164e-05 3.495376e-05
0000a0 37 64 8f 3a 52 b0 69 35 1d 91 54 3c 7e 5f de 3c
       0.00109399 8.7055844e-07 0.012974051 0.027145144
0000b0 7e ae a9 39 ca fa 11 38 e1 fe ff 3c 1b 63 d1 36
       0.000323642 3.480426e-05 0.031249465 6.240223e-06
0000c0 8f 47 a5 35 c1 63 60 3b fd 1e 97 35 d8 07 0b 3c
       1.2314284e-06 0.0034239145 1.1259395e-06 0.008485757
0000d0 32 0d 24 3b dc 9f 3a 3c dd 0d c4 3c 49 42 72 37
       0.002503228 0.0113906525 0.023932392 1.4439757e-05
0000e0 17 b6 bd 3c 02 7e 95 3a 77 ee 3e 34 81 56 25 35
       0.023158116 0.0011405351 1.7781882e-07 6.159317e-07
0000f0 45 a2 97 37 27 2c f3 37 e9 bb 0b 3d 75 ce 71 3c
       1.8076165e-05 2.8988417e-05 0.034114752 0.014758696
